data.pth (torch, 8554 bytes, 6 tensors)

l1.weight f4 [8, 108]
-0.2911348 0.2662592 -0.058840066 1.0342813 -0.21648996 -0.15055323 0.74180466 -0.48550013
1.2433865 0.6019767 0.8314062 1.022876 -0.4273751 0.6641213 0.11011874 0.13176642
-0.5231279 0.307235 -0.46854952 0.82722884 0.58288044 0.121719874 -0.3403539 1.0693665
-0.07704526 0.7546054 0.15392363 -0.11043842 -0.5816803 -0.09013544 -0.87589973 1.2240566
-0.5639651 -0.46927273 1.0266818 0.40771928 0.8806066 -0.5150623 1.0322077 0.9572715
1.2531117 0.9905039 -0.10195271 1.2989609 0.2558296 1.2547793 1.2294981 0.6458574
0.19225073 1.0947598 -0.20993581 0.8402063 0.9436547 -0.45624575 -0.3735036 -0.81445885
-0.14788093 -0.34769836 -0.65114653 -0.104360156 -0.08899656 0.99312055 0.30263013 0.4190897
-0.7275728 0.41011694 1.0448714 -0.26079175 0.0963832 -0.40596744 -0.5852454 -0.53754014
-0.027997382 0.14417502 -0.1940239 0.87781477 0.1414347 -0.41089603 -0.57646585 1.1036901
-0.25631493 -0.32580394 0.35149068 0.5392576 0.7740626 -0.5940043 -0.20559402 -0.13313904
-0.7235307 0.4982638 -0.12666968 0.46369645 0.19922447 0.8145712 -0.6468739 -0.9115347
0.49680832 0.84485495 0.13284907 0.79534245 -0.23657706 0.78002685 -0.68107945 0.57110226
-0.5641553 -0.08779089 0.26277962 0.1473967 0.06189457 0.23106366 -0.21962751 -0.078061484
-0.23299935 0.02107612 0.45453045 0.06481187 0.2733606 0.3913287 0.066303365 0.21591039
-0.021670138 -0.012430917 -0.5263759 -0.49032575 -0.090641126 0.4117858 -0.17508006 0.95090944
0.5851196 0.23632692 -0.3138834 -0.47158945 0.043392923 -0.049841214 0.20465149 -0.15892597
0.55007094 0.48441228 -0.41396928 0.23867628 -0.31988662 0.24551176 0.6976028 0.284646
-0.034992274 -0.08873605 0.94006705 0.6967978 0.09542365 0.81036013 0.12403362 0.26922065
-0.08374773 0.13295889 0.1374214 0.32917094 0.23717652 0.671842 0.030423887 -0.06320974
-0.31215265 -0.07428343 -0.14527588 -0.2475134 -0.062560774 0.50965214 -0.5103923 0.01917031
-0.04752002 0.674455 0.14601475 0.15307109 -0.34206933 0.22156176 0.46633944 -0.029845461
0.15470357 -0.5470213 0.602184 0.6579364 -0.15318166 -0.100127034 0.46855766 0.70737714
0.04563604 0.41003194 -0.9561488 0.1622556 -0.19797422 -0.12687927 0.03361307 0.5373699
0.23496366 -0.07482368 0.004553204 -0.048494894 -0.34905624 0.7002771 -0.055235054 0.45350188
0.09223385 -0.049763888 0.062049944 -0.34207952 0.3911472 0.01054541 -0.11459423 0.7128544
0.03269563 0.7413244 -0.34668675 0.48572972 -0.41810757 -0.11122216 0.31667167 0.25052366
0.06825411 -0.29650992 0.057017054 -0.1343798 -0.28852883 0.05062675 0.38883704 0.43303105
0.6801881 0.51180464 0.24404608 -0.36140868 -0.20058191 0.4531404 -0.24997067 -0.73501986
-0.3939378 0.05090426 -0.7277545 0.19735424 -0.30427197 -0.19636777 -0.45269927 -0.49864578
0.4475088 0.74254626 0.8339116 0.21659976 0.44056776 0.8424847 0.89138913 0.74619347
-0.28763527 0.33904463 0.7667635 -0.11858732 0.6832672 -0.39339477 -0.34562925 0.63915765
00000000: 9f0f 95be 2053 883e 4802 71bd 5463 843f
00000010: 8baf 5dbe a02a 1abe e9e6 3d3f 7993 f8be
00000020: 4a27 9f3f 251b 1a3f 09d7 543f 9aed 823f
00000030: e9d0 dabe db03 2a3f ef85 e13d c7ed 063e
00000040: b6eb 05bf e84d 9d3e b9e5 efbe 45c5 533f
00000050: a737 153f 4548 f93d de42 aebe 00e1 883f
00000060: e8c9 9dbd d22d 413f 289e 1d3e 8a2d e2bd
00000070: 00e9 14bf ee98 b8bd f73a 60bf e3ad 9c3f
00000080: 0460 10bf 8444 f0be 4f6a 833f 95c0 d03e
00000090: 6f6f 613f 1fdb 03bf 621f 843f bf0f 753f
000000a0: f765 a03f aa91 7d3f 95cc d0bd 5a44 a63f
000000b0: 19fc 823e 9c9c a03f 3260 9d3f e956 253f
000000c0: 60dd 443e 1721 8c3f 6af9 56be c317 573f
000000d0: 5b93 713f 0b99 e9be dd3b bfbe 6080 50bf
000000e0: 196e 17be 8505 b2be 8ab1 26bf c7ba d5bd
000000f0: d443 b6bd 263d 7e3f 56f2 9a3e ed92 d63e
00000100: 3642 3abf d9fa d13e 59be 853f 7f86 85be
00000110: 8e64 c53d f7da cfbe a4d2 15bf 3b9c 09bf
00000120: c45a e5bc 9ea2 133e 34ae 46be 78b8 603f
00000130: 42d4 103e f760 d2be 4493 13bf b845 8d3f
00000140: b63b 83be c6cf a6be 96f6 b33e c90c 0a3f
00000150: f728 463f aa10 18bf 3d87 52be 9a55 08be
00000160: 4f39 39bf 6f1c ff3e b2b5 01be 9f69 ed3e
00000170: 8001 4c3e bd87 503f 8799 25bf 575a 69bf
00000180: a95d fe3e 6a48 583f 9609 083e 909b 4b3f
00000190: 4241 72be d7af 473f 395b 2ebf c233 123f
000001a0: 7b6c 10bf b6cb b3bd 0d8b 863e 29ef 163e
000001b0: 2985 7d3d f49b 6c3e 09e6 60be b3de 9fbd
000001c0: 6297 6ebe d4a7 ac3c 37b8 e83e 16bc 843d
000001d0: ecf5 8b3e 3c5c c83e 0fca 873d 9d17 5d3e
000001e0: 9385 b1bc 0bab 4bbc 92c0 06bf fa0b fbbe
000001f0: 0ea2 b9bd 97d5 d23e 3048 33be cd6e 733f
00000200: 66ca 153f afff 713e 53b5 a0be 2c74 f1be
00000210: c7bc 313d 4d26 4cbd 2990 513e 7dbd 22be
00000220: 73d1 0c3f e304 f83e c8f3 d3be 8e67 743e
00000230: 2ec8 a3be 6f67 7b3e 1996 323f 1fbd 913e
00000240: 0f54 0fbd 3fbb b5bd 3ca8 703f 5761 323f
00000250: 7a6d c33d c373 4f3f 5705 fe3d 4ad7 893e
00000260: ee83 abbd 6026 083e 32b8 0c3e 1889 a83e
00000270: 67de 723e d6fd 2b3f 843b f93c 1c74 81bd
00000280: 79d2 9fbe e921 98bd 33c3 14be 2774 7dbe
00000290: dd1f 80bd 9078 023f 12a9 02bf 0e0b 9d3c
000002a0: 5aa4 42bd 15a9 2c3f e484 153e abbe 1c3e
000002b0: b623 afbe 16e1 623e 0bc4 ee3e 787e f4bc
000002c0: 9d6a 1e3e 9709 0cbf bb28 1a3f 856e 283f
000002d0: a7db 1cbe 670f cdbd cae6 ef3e ab16 353f
000002e0: dbec 3a3d b5ef d13e 2bc6 74bf 5526 263e
000002f0: c1b9 4abe a4ec 01be dcad 093d 1391 093f
00000300: 509a 703e 283d 99bd 0b33 953b 95a2 46bd
00000310: 80b7 b2be 5c45 333f 273e 62bd 6631 e83e
00000320: 1ae5 bc3d 38d5 4bbd 1528 7e3d 0c25 afbe
00000330: 7244 c83e a8c6 2c3c 61b0 eabd a07d 363f
00000340: daeb 053d 70c7 3d3f ed80 b1be 91b1 f83e
00000350: 3212 d6be 72c8 e3bd ca22 a23e a344 803e
00000360: d0c8 8b3d 26d0 97be b78a 693d dc9a 09be
00000370: 0dba 93be ff5d 4f3d a615 c73e 3fb6 dd3e
00000380: cf20 2e3f a105 033f 37e7 793e 8f0a b9be
00000390: 5865 4dbe 0502 e83e 50f8 7fbe 432a 3cbf
000003a0: 37b2 c9be fc80 503d 1e4e 3abf 3b17 4a3e
000003b0: 89c9 9bbe a214 49be 33c8 e7be 804e ffbe
000003c0: e01f e53e 8317 3e3f 3b7b 553f 54cc 5d3e
000003d0: 1992 e13e 14ad 573f 1432 643f 8906 3f3f
000003e0: ee44 93be 4297 ad3e 9d4a 443f e9dd f2bd
000003f0: 99ea 2e3f 0a6b c9be 51f6 b0be d69f 233f

l1.bias f4 [8]
0.9541573 0.070628144 0.3923241 0.3736335 0.9917951 0.79582965 0.7418108 1.6339654
00000000: a743 743f 7da5 903d b4de c83e e44c bf3e
00000010: 49e6 7d3f 7ebb 4b3f 50e7 3d3f c725 d13f

l2.weight f4 [8, 8]
-0.021277875 -0.2394443 0.1956382 0.2986696 -0.2021568 -0.0833769 -0.15218812 -0.3037788
0.48215923 0.21569723 2.054294 0.05447668 -0.55578595 -0.70052665 -1.6671842 1.9261675
2.5873735 0.7182382 -0.0082373 2.2570481 -1.3767788 0.48506936 -0.035708934 0.9462514
-0.08387418 -1.5858401 -1.0859041 -1.5006084 0.3058505 1.5008473 -0.33783355 1.9538141
-0.23252697 -0.19616182 -0.20403357 -0.25138482 0.077306725 -0.14663106 0.1222781 -0.16156161
1.1796402 -1.0866215 -0.8342896 -0.41554686 1.5548491 -1.5965637 1.8791689 1.5698606
-0.013316244 -0.48594728 -1.2739737 1.0356114 -1.469123 0.55629176 0.938064 1.3019887
-0.7895903 0.44729796 -0.058848627 0.11451107 -0.12503874 -0.34453565 -0.1340386 0.78601086
00000000: f04e aebc e330 75be 6155 483e 39eb 983e
00000010: 3102 4fbe 82c1 aabd 34d7 1bbe e588 9bbe
00000020: 93dd f63e bcdf 5c3e 8e79 0340 f022 5f3d
00000030: fd47 0ebf b755 33bf 4b66 d5bf a88c f63f
00000040: 8797 2540 75de 373f bef5 06bc 7a73 1040
00000050: 4a3a b0bf 035b f83e 8843 12bd 883d 723f
00000060: 3ac6 abbd cffc cabf e8fe 8abf f013 c0bf
00000070: 7098 9c3e c41b c03f 85f8 acbe 9516 fa3f
00000080: 8d1b 6ebe a5de 48be 2dee 50be 83b5 80be
00000090: fd52 9e3d 7426 16be f16c fa3d 6870 25be
000000a0: 73fe 963f 6a16 8bbf 0194 55bf 8fc2 d4be
000000b0: 4c05 c73f 335c ccbf 9b88 f03f 31f1 c83f
000000c0: 602c 5abc 15ce f8be 9211 a3bf ea8e 843f
000000d0: 390c bcbf 2369 0e3f f624 703f 91a7 a63f
000000e0: 9722 4abf 3d04 e53e 420b 71bd c884 ea3d
000000f0: 280a 00be fa66 b0be 6a41 09be 0238 493f

l2.bias f4 [8]
-0.16141106 0.49927855 0.3375504 1.390964 -0.31644294 0.9266206 -0.11264241 0.045234106
00000000: f148 25be 70a1 ff3e 68d3 ac3e 1c0b b23f
00000010: cf04 a2be 0237 6d3f 10b1 e6bd 6647 393d

l3.weight f4 [20, 8]
-0.0521338 -0.59006596 0.0013592157 -0.32507667 -0.027852843 -0.481794 0.54412156 -3.4043705
-0.3039611 -0.90143025 -2.1966105 -0.11478128 -0.13703947 0.7241338 -2.6292434 -1.7231817
-0.15613426 -0.99834436 -0.9798216 -2.3732827 -0.03707189 0.92761976 -1.2919558 0.5334191
-0.30617076 0.18183832 0.103475295 -1.5126545 0.057095375 -0.54824233 -0.0030513136 0.77576786
-0.3907239 -0.18441626 0.18571784 -1.2668735 -0.18965472 -2.0606816 0.56644124 0.8406327
0.0010291236 0.28339443 0.4303255 -1.721672 -0.19350098 -1.938347 -0.38516158 -2.1559525
0.24775796 0.7172093 -0.0187227 -0.14141816 0.14620036 -2.3157225 -0.80397725 1.2079254
-0.10214678 0.48782322 -1.5346355 0.1574359 -0.18476148 0.14195664 -1.9650373 1.0284123
-0.3259181 -1.1232251 0.4766533 -1.697048 0.16690937 0.37945545 -2.1667414 -1.779749
0.10090499 0.0835614 -0.50024545 0.4699793 0.15474346 -0.6748198 0.05371583 0.16374403
-0.24316949 0.43714017 -0.01076611 -0.1659942 0.20049015 -0.025712783 -1.5255958 -2.868975
0.2422773 -2.0197377 0.07567889 0.17452028 -0.25818884 0.25232401 -0.41553298 -2.156626
0.12589021 -0.8427077 0.91535 -1.4276348 -0.22132264 -1.3190118 -1.2453442 -1.8217506
-0.3485388 -1.2416542 -1.9797492 0.11068691 -0.2156232 0.24925211 0.15490504 1.4088327
0.13856713 -2.1805043 0.5011078 -1.3698802 -0.07259435 -0.58057153 0.42501223 -2.627829
-0.11567791 -1.8794284 -0.2917773 0.9769367 -0.32150567 -2.060559 0.3185636 -2.6939747
-0.09384801 -0.38063738 0.61375165 0.57613367 0.2619153 -1.7757398 -2.5550394 -2.254487
-0.27005726 0.66948044 0.46347475 -1.5897447 0.2210257 -1.6077844 -2.5139682 -0.5360376
-0.19089799 1.1951032 -1.1706215 -1.3092307 0.08808643 -0.88548064 -1.7135955 0.4830574
0.059113227 -1.2080739 -1.4376891 1.2535453 0.12529023 -0.075837016 -2.77503 -1.4963584
00000000: 408a 55bd 900e 17bf b627 b23a 7370 a6be
00000010: a52b e4bc b4ad f6be 8d4b 0b3f 35e1 59c0
00000020: caa0 9bbe 22c4 66bf 4495 0cc0 7312 ebbd
00000030: 1354 0cbe d560 393f 8645 28c0 3891 dcbf
00000040: a9e1 1fbe 7f93 7fbf 97d5 7abf dde3 17c0
00000050: b2d8 17bd 7d78 6d3f cf5e a5bf 278e 083f
00000060: 6ac2 9cbe d333 3a3e dbea d33d aa9e c1bf
00000070: d7dc 693d 9c59 0cbf 8cf8 47bb b998 463f
00000080: f70c c8be 9ed7 3cbe d12c 3e3e e928 a2bf
00000090: d934 42be 35e2 03c0 4b02 113f b433 573f
000000a0: a8e3 863a 1319 913e a053 dc3e c05f dcbf
000000b0: 1f25 46be c11b f8bf e633 c5be 20fb 09c0
000000c0: 43b4 7d3e 079b 373f 5960 99bc eccf 10be
000000d0: 8cb5 153e cc34 14c0 74d1 4dbf 4d9d 9a3f
000000e0: 5532 d1bd f7c3 f93e f06e c4bf e036 213e
000000f0: 1d32 3dbe 155d 113e 5886 fbbf 04a3 833f
00000100: bdde a6be d7c5 8fbf e70b f43e de38 d9bf
00000110: 4aea 2a3e fc47 c23e e4ab 0ac0 d1ce e3bf
00000120: 47a7 ce3d 3d22 ab3d 1610 00bf 20a1 f03e
00000130: 1275 1e3e fec0 2cbf 2105 5c3d 84ac 273e
00000140: 6c01 79be d6d0 df3e 5764 30bc 62fa 29be
00000150: 4a4d 4d3e 9da3 d2bc b946 c3bf 499d 37c0
00000160: 8a17 783e 6243 01c0 89fd 9a3d 72b5 323e
00000170: 5431 84be 9d30 813e bdc0 d4be 2906 0ac0
00000180: 5de9 003e b1bb 57bf 6154 6a3f bdbc b6bf
00000190: 67a2 62be 61d5 a8bf 7067 9fbf 202f e9bf
000001a0: ad73 b2be 86ee 9ebf 6c68 fdbf d2af e23d
000001b0: 54cc 5cbe f23b 7f3e 6d9f 1e3e a154 b43f
000001c0: 8be4 0d3e 628d 0bc0 9a48 003f 3c58 afbf
000001d0: 59ac 94bd 56a0 14bf 349b d93e 5a2e 28c0
000001e0: 8ae8 ecbd 1c91 f0bf d663 95be 8618 7a3f
000001f0: 649c a4be 33e0 03c0 c51a a33e 156a 2cc0
00000200: 6333 c0bd e7e2 c2be d41e 1d3f 7f7d 133f
00000210: c319 863e 714b e3bf c485 23c0 8449 10c0
00000220: f244 8abe 1263 2b3f 904c ed3e c17c cbbf
00000230: 9054 623e e1cb cdbf dbe4 20c0 c339 09bf
00000240: c37a 43be 24f9 983f edd6 95bf df94 a7bf
00000250: a966 b43d dcae 62bf 1957 dbbf 4d53 f73e
00000260: b620 723d 2aa2 9abf 3206 b8bf 2c74 a03f
00000270: 154c 003e 7050 9bbd 179a 31c0 ac88 bfbf

l3.bias f4 [20]
-1.2045386 -0.23961921 0.18407409 -0.5594944 -0.8838032 -0.9276929 -0.45272726 -0.74133956
-0.7236298 -0.7759259 -0.560618 -0.37063205 -0.31142274 -0.80506146 -0.5113029 -0.26971066
-0.18617539 -0.45000136 2.7053313 0.27260166
00000000: 522e 9abf bd5e 75be eb7d 3c3e 063b 0fbf
00000010: ed40 62bf 487d 6dbf decb e7be 6ec8 3dbf
00000020: cd3f 39bf 14a3 46bf a984 0fbf 7cc3 bdbe
00000030: cd72 9fbe 8218 4ebf bfe4 02bf 8417 8abe
00000040: c3a4 3ebe 9466 e6be 2624 2d40 7292 8b3e
