data.pth (torch, 8554 bytes, 6 tensors)

l1.weight f4 [8, 108]
0.20505811 0.5016478 0.8226061 0.092379786 0.14124647 0.33282804 0.6053272 -0.5585026
-0.5713973 0.20445105 -0.49800864 -0.50295013 0.4650505 -0.9639189 0.20756117 -0.084647104
0.799798 0.13337222 0.5161462 0.58490103 0.47674054 -0.034406614 -0.37383056 0.6774999
-0.3555107 -0.41236988 0.36848217 -0.25759876 -0.6133208 -0.5405975 -0.47566435 -0.50150514
-0.690042 0.06282655 -0.25501665 0.72689635 -0.5110561 0.647894 0.83911175 -0.2236333
-0.8366407 0.8579093 0.23331113 -0.8951473 1.0539385 -0.9233702 -0.8823097 0.14231507
0.330118 0.5446906 0.3433543 -0.3530683 0.026059477 0.41323617 0.46109906 -0.62173766
0.07193458 -0.68621016 -0.7332933 -0.0031296567 -0.050516844 0.76159793 0.56333846 0.5320913
-0.61630857 -0.5737137 0.8470707 0.28626198 -0.02220743 -0.77468604 -0.6147285 -0.54695284
0.4268722 -0.5513565 -0.45398256 -0.17711659 -0.48010764 -0.5507884 -0.20742674 -0.51783943
0.34541664 -0.42945635 0.50156736 -0.41940793 -0.0023806205 -0.5041524 0.032935932 0.24890204
-0.08136857 -0.16656576 0.1941697 0.91962063 0.46408075 0.35131297 -0.19983439 0.91995114
-0.23825422 -0.45153907 0.046370793 0.5529826 0.34668878 0.5010027 -0.49417484 -0.10246593
-0.72474945 -0.059576437 -0.27906972 0.275595 0.3326824 -0.29473287 0.7529328 0.7167059
1.0708508 0.18560393 0.5764728 0.77598894 0.17500398 -0.29769975 -0.47878236 0.40818796
-0.2777132 -0.20781775 0.20829093 0.76609915 1.1038902 0.5898287 0.8241428 0.6050637
0.13945763 0.06211073 0.7567916 0.8336405 0.6334718 -0.28447735 0.72952193 1.0827584
-0.774948 0.46586975 -0.2385225 0.2784289 0.63886714 -0.033636037 -0.37434012 0.5752653
-0.31755644 1.2128278 0.30174166 -0.39074302 -0.5998966 0.7185225 -0.3821946 -0.59412926
-0.15076676 -0.6018625 -0.6019384 -0.0024968844 0.4123319 -0.30477762 0.23252234 0.2836725
0.32998714 -0.32429698 0.7127146 1.0709236 -0.2077772 -0.9328268 0.67173904 0.33682093
0.63516176 -0.039852954 0.5923136 0.46566576 1.2927864 -0.69865656 0.09306017 0.36523807
0.13227354 0.9007898 0.9202147 -0.90577257 0.7156558 0.26068574 0.49712476 -0.43942443
0.33258513 -0.6458157 0.6064477 0.43023625 0.72180957 0.61526257 0.5671488 -0.77090114
-0.62454057 -0.6333418 0.48450938 0.348504 0.737402 -0.3195335 0.23490693 0.81912065
0.71317166 0.6579279 -0.7550791 -0.8522714 0.62682223 -0.41596836 0.49332827 -0.6652848
0.32831717 -0.031050375 -0.35388196 0.5884744 0.6085256 0.5456921 1.037677 0.37880746
-0.06880255 0.1851481 -0.7296459 -0.31003729 -0.57826215 -0.10544612 -0.561992 0.62130934
0.27440634 -0.16135979 0.65342814 0.019463792 -0.2484538 0.9728176 0.54085624 -0.35294357
0.39538088 0.32487783 0.2719348 -0.35950422 0.14291225 -0.033060797 -0.15880762 -0.66743743
-0.23842165 0.4367185 -0.009795481 0.09469586 0.3390468 0.61406296 -0.7801805 0.13742727
0.4837538 0.2729669 -0.24954227 -0.5346199 0.4929177 0.25774005 -0.38056222 -0.37159383
00000000: c1fa 513e fd6b 003f 5096 523f 9d31 bd3d
00000010: eaa2 103e 7068 aa3e b9f6 1a3f 07fa 0ebf
00000020: 1847 12bf 9e5b 513e fdfa febe 57c1 00bf
00000030: 191b ee3e 64c3 76bf ea8a 543e 765b adbd
00000040: 90bf 4c3f ba92 083e 2822 043f 13bc 153f
00000050: 5617 f43e f3ed 0cbd b866 bfbe a270 2d3f
00000060: 8005 b6be 2522 d3be b2a9 bc3e fce3 83be
00000070: 9802 1dbf 9964 0abf 478a f3be a462 00bf
00000080: 98a6 30bf 35ab 803d 8b91 82be e115 3a3f
00000090: 93d4 02bf 62dc 253f 07d0 563f 2100 65be
000000a0: 162e 56bf f29f 5b3f 1de9 6e3e 6028 65bf
000000b0: 75e7 863f fd61 6cbf 0cdf 61bf 0bbb 113e
000000c0: 3a05 a93e d870 0b3f 23cc af3e 5ec5 b4be
000000d0: af7a d53c b193 d33e 2d15 ec3e 332a 1fbf
000000e0: 7052 933d 78ab 2fbf 1cb9 3bbf ed1a 4dbb
000000f0: c0ea 4ebd 15f8 423f f336 103f 2337 083f
00000100: 66c6 1dbf e7de 12bf a0d9 583f ee90 923e
00000110: 5bec b5bc d351 46bf d95e 1dbf 1a05 0cbf
00000120: fe8e da3e b325 0dbf 6770 e8be 0d5e 35be
00000130: abd0 f5be 7800 0dbf ad67 54be 2091 04bf
00000140: 73da b03e b4e1 dbbe b866 003f a3bc d6be
00000150: 2f04 1cbb 2210 01bf d4e7 063d 2de0 7e3e
00000160: 91a4 a6bd 3790 2abe 6cd4 463e 426c 6b3f
00000170: fe9b ed3e 4bdf b33e 63a1 4cbe eb81 6b3f
00000180: eaf8 73be 2130 e7be 4def 3d3d 4590 0d3f
00000190: 3181 b13e b741 003f 7c04 fdbe a8d9 d1bd
000001a0: 2e89 39bf 6c06 74bd 3ae2 8ebe ca1a 8d3e
000001b0: 5955 aa3e 3ae7 96be 34c0 403f 0a7a 373f
000001c0: a411 893f f50e 3e3e b993 133f 36a7 463f
000001d0: 3e34 333e 1a6c 98be f622 f5be 03fe d03e
000001e0: 6d30 8ebe 2dce 54be 384a 553e 131f 443f
000001f0: 464c 8d3f 04ff 163f 06fb 523f 74e5 1a3f
00000200: fbcd 0e3e d267 7e3d 18bd 413f 7769 553f
00000210: 352b 223f 04a7 91be f3c1 3a3f d497 8a3f
00000220: fe62 46bf 7b86 ee3e 3e3f 74be 3c8e 8e3e
00000230: cc8c 233f f1c5 09bd 82a9 bfbe 9644 133f
00000240: c296 a2be f13d 9b3f e27d 9a3e 780f c8be
00000250: d392 19bf 17f1 373f 03af c3be db18 18bf
00000260: 9a62 1abe a913 1abf a318 1abf c5a2 23bb
00000270: 2b1d d33e d00b 9cbe 561a 6e3e 863d 913e
00000280: 13f4 a83e 410a a6be 7774 363f 0614 893f
00000290: 8cc3 54be bdcd 6ebf 17f7 2b3f cb73 ac3e
000002a0: f699 223f da3c 23bd dda1 173f be6b ee3e
000002b0: 067a a53f 28db 32bf 5596 be3d 7c00 bb3e
000002c0: b772 073e 299a 663f 3193 6b3f b6e0 67bf
000002d0: 3835 373f 9a78 853e 2387 fe3e 3dfc e0be
000002e0: 9948 aa3e 2d54 25bf 2840 1b3f ed47 dc3e
000002f0: 83c8 383f d981 1d3f aa30 113f c759 45bf
00000300: e4e1 1fbf b022 22bf 9d11 f83e 1e6f b23e
00000310: 61c6 3c3f e599 a3be 718b 703e e4b1 513f
00000320: 6b92 363f f66d 283f dd4c 41bf 752e 5abf
00000330: 6c77 203f cef9 d4be 8695 fc3e 1b50 2abf
00000340: 3019 a83e 5b5d febc 0430 b5be 42a6 163f
00000350: 55c8 1b3f 7ab2 0b3f 9ad2 843f 0df3 c13e
00000360: 5ae8 8cbd 7797 3d3e 13ca 3abf 35bd 9ebe
00000370: fd08 14bf 23f4 d7bd b5de 0fbf 210e 1f3f
00000380: fd7e 8c3e 803b 25be 1147 273f 8872 9f3c
00000390: ac6a 7ebe 930a 793f 8e75 0a3f 05b5 b4be
000003a0: 5d6f ca3e 6356 a63e 0a3b 8b3e f010 b8be
000003b0: 9757 123e c26a 07bd 779e 22be 2edd 2abf
000003c0: ce24 74be 9199 df3e 3a7d 20bc e7ef c13d
000003d0: 8b97 ad3e 3b33 1d3f e9b9 47bf bcb9 0c3e
000003e0: 94ae f73e 51c2 8b3e 0288 7fbe dadc 08bf
000003f0: b55f fc3e 81f6 833e 0dd9 c2be 8c41 bebe

l1.bias f4 [8]
0.9234364 0.6019613 0.7801248 0.62454957 1.2274257 0.82142705 1.2885836 0.6842773
00000000: 5466 6c3f 231a 1a3f 42b6 473f 7be2 1f3f
00000010: 491c 9d3f 0b49 523f 4ff0 a43f cc2c 2f3f

l2.weight f4 [8, 8]
0.21159545 -0.30158505 -0.32757398 -0.3431888 -0.2319336 -0.068987995 -0.05035782 -0.2103139
1.4083744 0.022788744 -1.7157755 0.83338445 -1.2609543 1.4331763 1.288702 1.4371083
0.19442353 -0.2985264 0.100807935 -0.16577564 -0.22491656 -0.25646374 -0.29325253 -0.055713087
1.0465513 1.2566471 0.32713974 0.83258474 0.36288494 -1.8705701 1.3675476 -0.36514795
0.33458826 0.03629223 -0.42677942 0.9870447 1.4565922 -1.2920853 0.87772375 0.017192075
0.8695958 1.9838495 -0.39626932 -0.90011394 1.1797915 1.8506402 0.63697153 -0.99516827
1.5468005 -1.0730206 0.86262566 -1.2909762 1.5215259 0.520366 0.798202 -0.35058194
-1.4576358 -0.9895357 1.9068726 1.8177695 0.8873842 0.9893055 0.7098373 1.8250043
00000000: 7aac 583e 5b69 9abe c7b7 a7be 71b6 afbe
00000010: 0080 6dbe 9449 8dbd 0044 4ebd 875c 57be
00000020: 9d45 b43f 76af ba3c 889e dbbf af58 553f
00000030: f366 a1bf 5272 b73f 30f4 a43f 2af3 b73f
00000040: f616 473e 74d8 98be 6474 ce3d 17c1 29be
00000050: 8750 66be 374f 83be 3225 96be 6833 64bd
00000060: 65f5 853f d0d9 a03f dc7e a73e 4624 553f
00000070: 0ecc b93e d76e efbf cd0b af3f acf4 babe
00000080: 274f ab3e 29a7 143d d582 dabe f6ae 7c3f
00000090: 9d71 ba3f 0d63 a5bf 81b2 603f 65d6 8c3c
000000a0: d59d 5e3f c8ee fd3f d0e3 cabe de6d 66bf
000000b0: 6803 973f c7e1 ec3f 9110 233f 59c3 7ebf
000000c0: 8ffd c53f bd58 89bf 09d5 5c3f b53e a5bf
000000d0: 5cc1 c23f b536 053f f756 4c3f 7a7f b3be
000000e0: cf93 babf 3652 7dbf 6714 f43f acac e83f
000000f0: 9c2b 633f 2043 7d3f e6b7 353f be99 e93f

l2.bias f4 [8]
-0.27800828 0.2780467 -0.17350248 0.13501069 0.09282312 0.8034669 0.8590592 0.56354743
00000000: 1a57 8ebe 235c 8e3e a2aa 31be 3e40 0a3e
00000010: 0c1a be3d 02b0 4d3f 4eeb 5b3f a544 103f

l3.weight f4 [20, 8]
0.20932332 0.58951896 -0.033686697 -1.3262413 -1.3076586 0.7257309 -1.4866037 -1.6052191
-0.13576385 0.30227157 -0.16386896 -0.1163231 -1.413115 0.26775387 -1.5362445 -0.13267592
0.08649257 0.60292715 0.25245723 0.27499723 -1.1106082 0.20605992 -0.6123382 -1.7798473
-0.08563241 -0.3816216 -0.14438131 0.61345637 0.44544384 0.08329758 0.07012923 -2.1289365
0.057836384 -0.15688479 -0.26437804 -0.8607859 -0.8663102 -1.7567867 -0.86947775 0.8055533
0.107985795 0.7949028 0.30727437 -1.5145252 -1.5722536 -0.6493619 -1.2201916 0.12558544
0.3080779 -1.5024319 0.005580157 0.37216634 -2.2566588 0.3570738 -1.1289492 0.5674118
-0.19883963 -0.012241312 -0.23217978 -0.69487983 -0.159125 -0.28192982 -0.052949674 0.18748468
-0.27637511 -1.2699038 0.2746059 -1.3790205 -2.276948 0.67394763 0.56548107 -0.0752238
-0.20756531 -2.880412 -0.199675 0.7618742 0.19161844 0.40142694 0.7736834 -1.3059422
-0.09951195 -1.7748473 0.029081672 -1.4012009 -0.5266217 -0.30112985 0.82725066 0.70036906
-0.21093638 -0.75017136 -0.16924661 0.3967137 -0.08327974 -0.21106079 0.7337153 -0.38802063
-0.19809857 0.5815085 0.02071914 0.4885364 -0.14118491 -0.8797105 -0.040586263 -1.0599142
0.0076714456 -1.1771572 0.14431456 0.6903036 0.57313764 0.018976899 -0.70429933 -0.7503147
0.30473825 -0.30970913 0.058502972 -0.6940274 -0.38957202 0.59157413 0.599266 -1.7712333
0.027706295 -2.0336998 0.33811966 0.49142292 0.25307715 -0.5450791 -1.1552522 0.30226016
0.333487 -0.48614293 0.12871647 0.3928924 -0.09461308 -1.933227 -1.4353005 0.47141084
0.25768206 0.49214476 0.210951 -0.110004835 0.0713905 -1.8242173 -1.1410568 -0.044844262
-0.24410932 -1.2236346 -0.0057449937 0.12195803 0.24570528 -1.6762059 0.57942337 0.27108437
-0.27950284 0.5393407 -0.21323414 -1.2590393 -2.0832136 -0.10781934 0.6746413 -0.40409425
00000000: da58 563e b7ea 163f 10fb 09bd 46c2 a9bf
00000010: 5b61 a7bf 80c9 393f 0849 bebf d277 cdbf
00000020: ae05 0bbe 57c3 9a3e 44cd 27be ce3a eebd
00000030: f4e0 b4bf 0917 893e a9a3 c4bf 32dc 07be
00000040: 0423 b13d 6f59 1a3f 1342 813e 70cc 8c3e
00000050: 6928 8ebf 5f01 533e 32c2 1cbf 09d2 e3bf
00000060: 0c60 afbd e863 c3be b2d8 13be 7a0b 1d3f
00000070: 3711 e43e ec97 aa3d ea9f 8f3d 7f40 08c0
00000080: d8e5 6c3d 68a6 20be 8f5c 87be 775c 5cbf
00000090: 81c6 5dbf 63de e0bf 1896 5ebf be38 4e3f
000000a0: a827 dd3d c07e 4b3f 1153 9d3e f6db c1bf
000000b0: 9b3f c9bf 953c 26bf 3d2f 9cbf 7899 003e
000000c0: 63bc 9d3e b04f c0bf c0d9 b63b 968c be3e
000000d0: 196d 10c0 61d2 b63e 6881 90bf e641 113f
000000e0: 9e9c 4bbe c98f 48bc 89c0 6dbe a5e3 31bf
000000f0: aaf1 22be 1b59 90be c2e1 58bd fcfb 3f3e
00000100: 0a81 8dbe 358c a2bf 2599 8c3e be83 b0bf
00000110: 84b9 11c0 d587 2c3f 5ec3 103f f00e 9abd
00000120: 008c 54be ac58 38c0 9a77 4cbe 300a 433f
00000130: a037 443e d587 cd3e 1e10 463f 1d29 a7bf
00000140: eccc cbbd 322e e3bf b03c ee3c 8d5a b3bf
00000150: aed0 06bf b12d 9abe b3c6 533f 634b 333f
00000160: b5ff 57be 3b0b 40bf fc4e 2dbe 0f1e cb3e
00000170: 918e aabd 5220 58be c4d4 3b3f a4aa c6be
00000180: 5ada 4abe bedd 143f 30bb a93c 7121 fa3e
00000190: c792 10be b534 61bf c83d 26bd 45ab 87bf
000001a0: c060 fb3b 16ad 96bf 32c7 133e bdb7 303f
000001b0: 26b9 123f 7175 9b3c f64c 34bf a014 40bf
000001c0: a706 9c3e 3292 9ebe d0a0 6f3d c8ab 31bf
000001d0: fc75 c7be 6771 173f 7f69 193f c6b7 e2bf
000001e0: 50f8 e23c 2328 02c0 051e ad3e c99b fb3e
000001f0: 5493 813e 4e8a 0bbf 4edf 93bf d8c1 9a3e
00000200: cfbe aa3e bae7 f8be 40ce 033e 3129 c93e
00000210: 81c4 c1bd fb73 f7bf edb7 b7bf c35c f13e
00000220: e7ee 833e 66fa fb3e 8a03 583e 374a e1bd
00000230: 2f35 923d f47f e9bf 260e 92bf 9eae 37bd
00000240: cbf7 79be 0fa0 9cbf 8040 bcbb 22c5 f93d
00000250: 2a9a 7b3e ea8d d6bf 1755 143f 92cb 8a3e
00000260: ff1a 8fbe 3b12 0a3f 0d5a 5abe 3328 a1bf
00000270: 5f53 05c0 63d0 dcbd 4bb5 2c3f 71e5 cebe

l3.bias f4 [20]
0.19796637 -0.08601103 -0.32985377 -0.5886814 -0.04017683 -0.37758133 0.33155826 -0.27782416
-0.19419211 0.19078222 0.43715584 0.27846143 -0.15375625 -0.44449073 0.09937626 0.5537553
-0.2731781 -0.087584145 -0.22296663 0.16052765
00000000: b2b7 4a3e 8d26 b0bd 98e2 a8be d3b3 16bf
00000010: 7690 24bd 5752 c1be 01c2 a93e f83e 8ebe
00000020: 4cda 46be 6a5c 433e e4d2 df3e 7f92 8e3e
00000030: 4772 1dbe 4a94 e3be c885 cb3d e8c2 0d3f
00000040: 00de 8bbe 515f b3bd 5d51 64be 5c61 243e
